1-mood-sip/src/moodsip.onnx (onnx, 355952 bytes, 21 tensors)

onnx::Conv_246_quantized i1 [16, 3, 3, 3]
3 25 46 10 12 3 14 -33
-70 19 21 32 9 -5 -16 2
-45 -76 -29 -23 -20 -16 9 12
-5 14 10 13 39 19 -27 -72
-39 13 34 19 27 68 43 -50
-127 -74 27 54 32 0 22 10
-9 -36 -15 7 18 2 -39 -9
3 -11 -4 3 -2 -2 -14 -43
-8 20 -17 -6 11 8 9 -1
-24 5 12 -1 3 -1 5 1
-19 36 3 -30 -5 -9 13 -31
8 20 79 -5 -70 -19 -13 33
-69 12 49 18 3 -19 1 -5
10 -17 4 5 0 0 0 0
0 0 0 0 0 4 4 3
4 5 4 2 3 1 -3 -3
-1 -3 -3 -1 -2 -1 0 23
-52 30 38 -80 39 9 -51 44
48 -77 26 65 -105 42 26 -77
41 10 -20 14 26 -50 22 -2
-24 24 -12 -24 -17 -2 0 1
14 24 17 -20 -36 -27 -1 0
1 22 34 26 -5 -15 -10 -1
1 2 6 13 8 0 -8 4
24 -52 30 23 -46 26 8 -19
14 47 -102 55 43 -89 41 6
0 -1 14 -26 13 6 -25 14
11 -1 -10 10 1 -11 10 1
-11 14 -1 -11 13 0 -13 11
0 -12 7 -1 -6 5 0 -6
6 1 -6 1 -3 3 0 -11
-4 6 -6 5 2 -2 0 1
00000000: 0319 2e0a 0c03 0edf ba13 1520 09fb f002
00000010: d3b4 e3e9 ecf0 090c fb0e 0a0d 2713 e5b8
00000020: d90d 2213 1b44 2bce 81b6 1b36 2000 160a
00000030: f7dc f107 1202 d9f7 03f5 fc03 fefe f2d5
00000040: f814 effa 0b08 09ff e805 0cff 03ff 0501
00000050: ed24 03e2 fbf7 0de1 0814 4ffb baed f321
00000060: bb0c 3112 03ed 01fb 0aef 0405 0000 0000
00000070: 0000 0000 0004 0403 0405 0402 0301 fdfd
00000080: fffd fdff feff 0017 cc1e 26b0 2709 cd2c
00000090: 30b3 1a41 972a 1ab3 290a ec0e 1ace 16fe
000000a0: e818 f4e8 effe 0001 0e18 11ec dce5 ff00
000000b0: 0116 221a fbf1 f6ff 0102 060d 0800 f804
000000c0: 18cc 1e17 d21a 08ed 0e2f 9a37 2ba7 2906
000000d0: 00ff 0ee6 0d06 e70e 0bff f60a 01f5 0a01
000000e0: f50e fff5 0d00 f30b 00f4 07ff fa05 00fa
000000f0: 0601 fa01 fd03 00f5 fc06 fa05 02fe 0001

onnx::Conv_249_quantized i1 [32, 16, 3, 3]
6 6 4 -5 -10 -9 2 3
1 1 -2 -2 9 24 12 0
1 7 0 -4 -3 4 5 8
-1 -3 -1 -1 -2 -2 1 9
0 -7 -5 -1 0 -2 -2 0
-2 -1 3 3 2 -1 -1 -1
1 1 -2 -1 -2 -2 -3 -4
-5 8 17 18 -13 -18 -16 -1
2 3 -1 -3 -4 3 4 3
1 1 3 -2 -1 -1 1 3
-3 2 4 2 1 2 0 -3
-2 -2 1 1 0 2 2 2
1 0 0 2 0 -1 2 0
0 0 -1 -1 0 1 1 0
0 0 -1 -1 0 3 8 5
-19 -46 -27 6 10 -1 -1 0
-1 0 -3 -1 3 0 -1 1
2 0 5 -4 -11 2 6 -1
10 12 7 3 4 1 -16 -16
-7 -1 -5 -3 3 1 2 -4
-15 0 -7 -16 -13 3 14 14
0 7 3 -1 5 7 0 -8
-8 6 3 -8 -2 0 0 -2
-4 -1 2 3 3 1 0 -3
3 5 4 2 2 3 -36 -61
-38 5 9 1 14 40 23 -2
1 1 -2 3 1 1 -6 -4
0 3 -3 5 9 1 -1 -1
7 3 3 0 7 15 4 -5
-5 -5 3 2 0 3 4 2
1 2 0 3 1 2 2 0
1 1 -1 0 2 0 0 3
00000000: 0606 04fb f6f7 0203 0101 fefe 0918 0c00
00000010: 0107 00fc fd04 0508 fffd ffff fefe 0109
00000020: 00f9 fbff 00fe fe00 feff 0303 02ff ffff
00000030: 0101 feff fefe fdfc fb08 1112 f3ee f0ff
00000040: 0203 fffd fc03 0403 0101 03fe ffff 0103
00000050: fd02 0402 0102 00fd fefe 0101 0002 0202
00000060: 0100 0002 00ff 0200 0000 ffff 0001 0100
00000070: 0000 ffff 0003 0805 edd2 e506 0aff ff00
00000080: ff00 fdff 0300 ff01 0200 05fc f502 06ff
00000090: 0a0c 0703 0401 f0f0 f9ff fbfd 0301 02fc
000000a0: f100 f9f0 f303 0e0e 0007 03ff 0507 00f8
000000b0: f806 03f8 fe00 00fe fcff 0203 0301 00fd
000000c0: 0305 0402 0203 dcc3 da05 0901 0e28 17fe
000000d0: 0101 fe03 0101 fafc 0003 fd05 0901 ffff
000000e0: 0703 0300 070f 04fb fbfb 0302 0003 0402
000000f0: 0102 0003 0102 0200 0101 ff00 0200 0003

onnx::Conv_252_quantized i1 [64, 32, 1, 1]
0 -4 -5 1 4 -6 2 -6
0 -15 3 -2 2 -16 2 -3
-4 3 -3 4 0 -3 2 -2
-3 -12 2 -15 -2 2 0 2
-16 1 2 22 -3 -12 3 -3
24 5 -9 26 -4 -6 -11 5
-26 4 0 -5 0 13 -23 -1
-7 1 0 -1 -15 -1 -4 -12
2 1 17 -7 16 -23 7 1
-19 -12 10 -7 -10 14 -13 -11
-65 2 -5 -2 0 1 8 -14
25 3 1 -4 -51 14 -19 -25
0 0 0 0 0 -1 -1 0
0 0 0 0 0 0 0 0
0 0 0 0 11 0 0 0
0 0 11 0 0 0 0 0
-7 -2 1 -1 -3 -2 0 0
-2 0 -4 -1 -4 1 -1 1
-1 -4 1 -1 0 0 -8 0
0 0 1 0 -4 -1 0 0
0 4 -8 15 -4 -13 -2 -2
20 4 -1 18 4 -1 -38 6
-22 15 10 -35 0 2 -5 -1
2 -2 0 2 2 -1 -23 -41
-7 9 7 -3 -1 -50 -9 -26
4 -1 -3 -4 -23 -19 1 -54
-10 -7 21 -6 -15 0 -7 35
-7 -35 -20 -19 -4 93 13 -3
17 31 -3 8 10 -34 -44 19
16 10 1 13 8 6 11 3
4 10 1 10 -8 -7 15 -21
-4 3 -10 7 5 -9 -5 12
00000000: 00fc fb01 04fa 02fa 00f1 03fe 02f0 02fd
00000010: fc03 fd04 00fd 02fe fdf4 02f1 fe02 0002
00000020: f001 0216 fdf4 03fd 1805 f71a fcfa f505
00000030: e604 00fb 000d e9ff f901 00ff f1ff fcf4
00000040: 0201 11f9 10e9 0701 edf4 0af9 f60e f3f5
00000050: bf02 fbfe 0001 08f2 1903 01fc cd0e ede7
00000060: 0000 0000 00ff ff00 0000 0000 0000 0000
00000070: 0000 0000 0b00 0000 0000 0b00 0000 0000
00000080: f9fe 01ff fdfe 0000 fe00 fcff fc01 ff01
00000090: fffc 01ff 0000 f800 0000 0100 fcff 0000
000000a0: 0004 f80f fcf3 fefe 1404 ff12 04ff da06
000000b0: ea0f 0add 0002 fbff 02fe 0002 02ff e9d7
000000c0: f909 07fd ffce f7e6 04ff fdfc e9ed 01ca
000000d0: f6f9 15fa f100 f923 f9dd eced fc5d 0dfd
000000e0: 111f fd08 0ade d413 100a 010d 0806 0b03
000000f0: 040a 010a f8f9 0feb fc03 f607 05f7 fb0c

onnx::Conv_255_quantized i1 [64, 1, 3, 3]
-10 -1 3 -15 13 24 -9 10
17 15 8 0 5 -9 -10 -3
-11 -2 2 4 -1 5 14 8
-6 2 5 -47 -63 -50 -31 26
38 -8 64 75 -19 -27 -10 -40
0 49 -32 41 70 -1 6 3
5 17 9 2 9 4 0 1
1 1 6 3 1 5 3 6
6 1 10 14 5 4 8 6
1 3 3 4 6 4 3 3
1 -18 -41 -29 3 -9 -27 28
51 22 -14 -21 3 -20 -21 12
5 9 23 0 3 2 3 11
6 4 9 4 1 -4 -4 -5
-11 -5 -5 -7 -1 3 19 21
-13 4 27 -16 -20 2 -10 -19
-27 18 19 -35 28 65 10 -3
-5 -4 4 19 16 6 24 20
-9 -19 -17 29 96 60 -16 -34
-32 -1 -6 -3 -6 -9 -2 -5
-3 1 -5 -7 -6 -11 -14 -10
-8 -11 -4 1 -4 -2 -8 -19
-13 -7 -15 -9 11 16 2 16
-11 -30 6 -28 -29 12 26 18
-4 -12 -7 -17 -45 -27 -1 -7
-2 -9 -18 -10 -6 -13 -6 0
4 2 4 12 6 0 6 3
4 7 4 4 17 13 1 11
8 -1 -3 -3 -3 -11 -12 -4
-10 -9 -4 0 -2 -2 12 8
-5 7 6 6 -6 3 5 -13
-10 6 0 -8 30 41 47 39
00000000: f6ff 03f1 0d18 f70a 110f 0800 05f7 f6fd
00000010: f5fe 0204 ff05 0e08 fa02 05d1 c1ce e11a
00000020: 26f8 404b ede5 f6d8 0031 e029 46ff 0603
00000030: 0511 0902 0904 0001 0101 0603 0105 0306
00000040: 0601 0a0e 0504 0806 0103 0304 0604 0303
00000050: 01ee d7e3 03f7 e51c 3316 f2eb 03ec eb0c
00000060: 0509 1700 0302 030b 0604 0904 01fc fcfb
00000070: f5fb fbf9 ff03 1315 f304 1bf0 ec02 f6ed
00000080: e512 13dd 1c41 0afd fbfc 0413 1006 1814
00000090: f7ed ef1d 603c f0de e0ff fafd faf7 fefb
000000a0: fd01 fbf9 faf5 f2f6 f8f5 fc01 fcfe f8ed
000000b0: f3f9 f1f7 0b10 0210 f5e2 06e4 e30c 1a12
000000c0: fcf4 f9ef d3e5 fff9 fef7 eef6 faf3 fa00
000000d0: 0402 040c 0600 0603 0407 0404 110d 010b
000000e0: 08ff fdfd fdf5 f4fc f6f7 fc00 fefe 0c08
000000f0: fb07 0606 fa03 05f3 f606 00f8 1e29 2f27

onnx::Conv_258_quantized i1 [32, 64, 3, 3]
-2 -2 -7 -9 -10 0 3 2
-2 0 4 -2 2 6 -4 1
-1 -7 1 1 2 1 -2 -7
3 -1 -7 0 7 -2 3 3
-3 9 4 1 5 -6 8 -5
-4 8 -5 4 -14 3 -2 0
-4 -16 -10 -9 -2 0 -3 -5
-1 4 4 2 5 12 6 3
0 -8 -6 -10 -5 -6 -1 -5
-2 -8 -2 -7 13 11 -3 -3
-8 0 2 3 -2 -17 1 1
0 3 2 -1 0 1 -4 -7
-5 -9 7 -10 -12 -2 -15 17
0 -3 11 -2 -5 -1 1 8
3 -2 -3 -1 -1 1 0 2
-2 -3 6 -2 -8 -2 4 -9
6 7 0 3 4 3 0 4
12 0 -1 -30 7 4 21 4
-1 -3 0 3 14 4 -4 -7
-5 4 -1 5 3 3 4 4
3 -1 5 -4 -8 4 -4 2
4 9 6 3 7 4 6 -14
1 3 3 10 -6 8 -1 8
2 -7 -6 -13 2 4 -4 -4
1 -2 -1 8 11 -1 1 -5
-5 -8 -26 -4 -2 2 -1 0
-3 0 -9 -14 -11 1 -5 -1
-2 -6 -6 -14 -1 -3 4 11
-9 4 2 -2 -1 -17 -6 1
5 3 -2 1 0 -8 -3 -5
1 -10 -10 -3 0 3 -7 -3
5 2 8 -1 -2 3 4 6
00000000: fefe f9f7 f600 0302 fe00 04fe 0206 fc01
00000010: fff9 0101 0201 fef9 03ff f900 07fe 0303
00000020: fd09 0401 05fa 08fb fc08 fb04 f203 fe00
00000030: fcf0 f6f7 fe00 fdfb ff04 0402 050c 0603
00000040: 00f8 faf6 fbfa fffb fef8 fef9 0d0b fdfd
00000050: f800 0203 feef 0101 0003 02ff 0001 fcf9
00000060: fbf7 07f6 f4fe f111 00fd 0bfe fbff 0108
00000070: 03fe fdff ff01 0002 fefd 06fe f8fe 04f7
00000080: 0607 0003 0403 0004 0c00 ffe2 0704 1504
00000090: fffd 0003 0e04 fcf9 fb04 ff05 0303 0404
000000a0: 03ff 05fc f804 fc02 0409 0603 0704 06f2
000000b0: 0103 030a fa08 ff08 02f9 faf3 0204 fcfc
000000c0: 01fe ff08 0bff 01fb fbf8 e6fc fe02 ff00
000000d0: fd00 f7f2 f501 fbff fefa faf2 fffd 040b
000000e0: f704 02fe ffef fa01 0503 fe01 00f8 fdfb
000000f0: 01f6 f6fd 0003 f9fd 0502 08ff fe03 0406

onnx::Conv_261_quantized i1 [16, 32, 3, 3]
4 -8 -25 -34 -32 -37 -18 -9
-8 9 10 -2 14 16 21 0
8 5 -21 -6 -2 -12 8 -7
8 -2 -1 4 1 -6 -9 -18
-6 9 1 21 -7 12 6 4
7 5 0 1 5 -13 -2 -4
-5 9 -1 -15 14 -3 -15 -22
-4 1 -2 -17 -18 -27 1 -17
-4 6 -10 -23 -9 -23 -17 -21
-25 -57 -38 -84 -101 -77 -43 -64
-54 -10 11 0 -6 15 -11 14
-1 -5 3 -1 3 10 -25 -12
-6 -7 -5 0 -1 -12 -32 -24
-15 -2 -5 3 12 -10 14 3
-11 -4 9 -8 11 10 -1 -8
-10 -12 -3 -8 -16 -5 -12 5
6 6 -10 9 23 15 17 -15
-50 -14 -33 -70 -29 -38 -61 -23
20 18 20 -25 -28 -25 14 11
16 19 4 15 2 -13 2 13
3 6 2 -6 13 -1 -4 -3
3 -1 7 1 -2 -1 -3 -22
-12 -30 -36 -18 33 8 10 10
23 15 0 -8 -6 8 -7 -22
-2 -37 9 -19 14 6 6 4
3 1 -12 -4 -8 -13 -21 -6
-28 2 -7 -35 -18 2 -4 -7
-6 3 10 -7 42 -6 10 19
2 -12 -8 -6 -11 -7 13 -1
2 2 -3 -3 -8 1 -41 -4
-8 5 -15 1 5 -7 0 10
-17 -14 -17 -17 18 12 0 17
00000000: 04f8 e7de e0db eef7 f809 0afe 0e10 1500
00000010: 0805 ebfa fef4 08f9 08fe ff04 01fa f7ee
00000020: fa09 0115 f90c 0604 0705 0001 05f3 fefc
00000030: fb09 fff1 0efd f1ea fc01 feef eee5 01ef
00000040: fc06 f6e9 f7e9 efeb e7c7 daac 9bb3 d5c0
00000050: caf6 0b00 fa0f f50e fffb 03ff 030a e7f4
00000060: faf9 fb00 fff4 e0e8 f1fe fb03 0cf6 0e03
00000070: f5fc 09f8 0b0a fff8 f6f4 fdf8 f0fb f405
00000080: 0606 f609 170f 11f1 cef2 dfba e3da c3e9
00000090: 1412 14e7 e4e7 0e0b 1013 040f 02f3 020d
000000a0: 0306 02fa 0dff fcfd 03ff 0701 feff fdea
000000b0: f4e2 dcee 2108 0a0a 170f 00f8 fa08 f9ea
000000c0: fedb 09ed 0e06 0604 0301 f4fc f8f3 ebfa
000000d0: e402 f9dd ee02 fcf9 fa03 0af9 2afa 0a13
000000e0: 02f4 f8fa f5f9 0dff 0202 fdfd f801 d7fc
000000f0: f805 f101 05f9 000a eff2 efef 120c 0011

onnx::Conv_264_quantized i1 [16, 16, 3, 3]
0 2 -19 -10 -14 -18 -35 -27
7 8 5 -8 -5 6 16 -6
13 -12 9 -7 -2 9 4 2
1 -1 0 7 3 -14 2 2
-19 17 25 -15 8 -14 -27 -3
3 -3 -4 -9 -12 12 -9 0
6 -6 -9 -17 -14 3 -6 -6
-7 8 17 34 -10 27 18 -3
8 -17 6 20 2 5 1 -18
5 14 -26 -4 21 -24 -52 -11
-20 11 24 -13 7 22 -14 6
-22 -9 10 -18 -5 -5 13 26
18 10 4 1 2 -9 -22 -5
-1 -16 -17 3 -3 2 8 2
8 0 -11 -12 -12 6 -12 -20
-11 -21 -17 -12 -8 -6 -19 4
-7 -20 -13 -6 -18 -13 -12 -9
11 1 -2 17 3 -9 -9 -27
-20 -19 -15 13 -3 3 -6 -8
0 3 5 15 7 -1 1 0
9 2 -12 -2 -4 4 13 2
-5 5 16 10 15 0 4 -13
-3 -33 -17 -32 45 15 8 14
7 15 10 24 13 0 -21 -8
0 -38 -9 12 -2 -3 16 14
10 5 -12 15 7 18 37 8
22 -3 3 10 4 0 10 16
32 13 9 52 31 12 36 16
6 -7 -8 -5 -3 13 -17 -3
1 2 10 14 15 23 8 4
7 7 -1 2 13 2 7 8
4 10 5 2 10 -2 8 5
00000000: 0002 edf6 f2ee dde5 0708 05f8 fb06 10fa
00000010: 0df4 09f9 fe09 0402 01ff 0007 03f2 0202
00000020: ed11 19f1 08f2 e5fd 03fd fcf7 f40c f700
00000030: 06fa f7ef f203 fafa f908 1122 f61b 12fd
00000040: 08ef 0614 0205 01ee 050e e6fc 15e8 ccf5
00000050: ec0b 18f3 0716 f206 eaf7 0aee fbfb 0d1a
00000060: 120a 0401 02f7 eafb fff0 ef03 fd02 0802
00000070: 0800 f5f4 f406 f4ec f5eb eff4 f8fa ed04
00000080: f9ec f3fa eef3 f4f7 0b01 fe11 03f7 f7e5
00000090: eced f10d fd03 faf8 0003 050f 07ff 0100
000000a0: 0902 f4fe fc04 0d02 fb05 100a 0f00 04f3
000000b0: fddf efe0 2d0f 080e 070f 0a18 0d00 ebf8
000000c0: 00da f70c fefd 100e 0a05 f40f 0712 2508
000000d0: 16fd 030a 0400 0a10 200d 0934 1f0c 2410
000000e0: 06f9 f8fb fd0d effd 0102 0a0e 0f17 0804
000000f0: 0707 ff02 0d02 0708 040a 0502 0afe 0805

onnx::Conv_267_quantized i1 [64, 128, 1, 1]
-4 13 1 2 -8 0 1 -4
3 -2 -11 5 1 -6 -6 11
-12 1 -2 -5 8 4 10 1
1 -1 3 5 0 -1 8 -4
3 -1 0 -2 -3 -2 2 -21
-1 -17 -2 0 -2 -4 -3 -12
6 -2 5 5 -4 17 -2 2
-9 6 -1 -7 0 4 -7 -2
0 -1 -3 6 1 0 -2 0
4 -9 1 1 -6 5 1 -3
1 -1 3 6 -14 -1 -5 8
-1 5 -1 0 22 1 -5 15
-3 -3 -3 -4 15 -1 0 -3
7 -1 -5 6 0 -2 2 -3
3 -1 -18 2 -2 1 -22 -3
-8 -2 3 -3 4 -15 4 2
0 26 -3 -2 -1 1 1 -5
-2 5 -21 3 -1 -14 5 6
-1 3 0 9 -5 0 -7 -1
-3 3 1 -4 0 -2 2 0
4 -14 1 1 -5 -5 6 8
1 -2 -1 3 -1 0 5 -4
3 -4 2 -10 7 2 1 3
4 -1 -4 5 2 2 1 -3
-1 -1 5 -1 2 4 -8 0
0 4 3 -1 -1 -4 2 9
-2 0 1 -1 -2 5 1 1
-9 -3 10 2 3 -3 1 1
8 -4 5 2 0 2 0 0
-3 -2 -2 -2 -3 2 -3 -1
0 1 -3 2 1 2 0 -3
-3 2 -2 -1 -2 -6 0 2
00000000: fc0d 0102 f800 01fc 03fe f505 01fa fa0b
00000010: f401 fefb 0804 0a01 01ff 0305 00ff 08fc
00000020: 03ff 00fe fdfe 02eb ffef fe00 fefc fdf4
00000030: 06fe 0505 fc11 fe02 f706 fff9 0004 f9fe
00000040: 00ff fd06 0100 fe00 04f7 0101 fa05 01fd
00000050: 01ff 0306 f2ff fb08 ff05 ff00 1601 fb0f
00000060: fdfd fdfc 0fff 00fd 07ff fb06 00fe 02fd
00000070: 03ff ee02 fe01 eafd f8fe 03fd 04f1 0402
00000080: 001a fdfe ff01 01fb fe05 eb03 fff2 0506
00000090: ff03 0009 fb00 f9ff fd03 01fc 00fe 0200
000000a0: 04f2 0101 fbfb 0608 01fe ff03 ff00 05fc
000000b0: 03fc 02f6 0702 0103 04ff fc05 0202 01fd
000000c0: ffff 05ff 0204 f800 0004 03ff fffc 0209
000000d0: fe00 01ff fe05 0101 f7fd 0a02 03fd 0101
000000e0: 08fc 0502 0002 0000 fdfe fefe fd02 fdff
000000f0: 0001 fd02 0102 00fd fd02 feff fefa 0002

onnx::Conv_270_quantized i1 [32, 64, 3, 3]
-7 -9 -1 -5 5 -3 3 3
1 7 8 12 9 -12 5 14
7 4 2 -1 1 -2 -7 5
5 2 4 -3 2 2 -5 -1
4 -10 5 3 -1 -5 -3 -1
2 -3 1 11 9 8 12 6
-5 1 -2 1 6 10 -1 -1
0 4 -22 3 9 3 0 3
0 3 3 -1 0 1 -5 0
3 5 -2 1 5 -1 -1 2
-3 -6 -7 -5 3 -32 -5 5
-6 0 3 13 6 8 -28 1
4 -2 10 -2 -6 1 -4 -11
-3 6 9 4 9 7 6 2
-5 2 4 4 11 2 5 0
2 -5 4 3 0 1 6 2
3 6 11 6 4 -3 3 4
-1 5 2 -14 -2 5 -5 2
3 -7 -6 0 4 -5 6 7
-3 5 0 2 5 0 -1 7
8 1 1 5 1 -1 -19 -1
-4 2 1 8 17 7 2 -20
0 9 16 7 4 -3 0 -2
4 -6 -2 -3 -8 8 -1 1
2 15 0 -5 -1 -8 8 2
1 11 -24 5 9 5 11 -2
-1 -1 0 1 8 -6 -7 -1
2 0 7 -10 12 -1 -1 -1
7 0 4 5 0 -15 3 9
3 -3 -1 0 -5 4 2 1
0 -2 0 -2 1 -2 6 -8
8 1 -2 3 7 5 5 6
00000000: f9f7 fffb 05fd 0303 0107 080c 09f4 050e
00000010: 0704 02ff 01fe f905 0502 04fd 0202 fbff
00000020: 04f6 0503 fffb fdff 02fd 010b 0908 0c06
00000030: fb01 fe01 060a ffff 0004 ea03 0903 0003
00000040: 0003 03ff 0001 fb00 0305 fe01 05ff ff02
00000050: fdfa f9fb 03e0 fb05 fa00 030d 0608 e401
00000060: 04fe 0afe fa01 fcf5 fd06 0904 0907 0602
00000070: fb02 0404 0b02 0500 02fb 0403 0001 0602
00000080: 0306 0b06 04fd 0304 ff05 02f2 fe05 fb02
00000090: 03f9 fa00 04fb 0607 fd05 0002 0500 ff07
000000a0: 0801 0105 01ff edff fc02 0108 1107 02ec
000000b0: 0009 1007 04fd 00fe 04fa fefd f808 ff01
000000c0: 020f 00fb fff8 0802 010b e805 0905 0bfe
000000d0: ffff 0001 08fa f9ff 0200 07f6 0cff ffff
000000e0: 0700 0405 00f1 0309 03fd ff00 fb04 0201
000000f0: 00fe 00fe 01fe 06f8 0801 fe03 0705 0506

onnx::Conv_273_quantized i1 [16, 32, 3, 3]
-2 -2 -2 3 2 -12 -2 -14
-15 7 0 8 1 -11 14 4
-8 3 -7 -10 -5 20 -7 1
12 10 -2 18 9 1 -9 7
-15 3 7 -4 -2 7 -7 -7
-7 -6 3 1 1 3 3 0
-6 6 -2 -2 -6 -15 2 -5
17 9 3 15 0 -6 -4 -8
6 -1 2 -6 3 8 -8 10
11 -4 17 13 -9 15 -9 -10
-10 -1 1 5 -13 28 -6 -4
-7 1 6 -6 -1 -5 17 8
-1 3 -3 0 2 5 -5 10
15 3 1 4 -5 2 14 -9
11 8 -7 7 2 6 -4 2
-3 0 -1 -5 0 1 8 -4
14 -11 -1 -20 0 -21 -8 7
-4 6 2 -5 14 -5 -4 2
-2 -8 6 36 0 -12 -8 -10
-5 0 4 -4 -17 -15 -5 -10
4 -4 3 -2 4 0 11 1
0 -5 2 16 -8 -1 0 -8
-3 6 24 20 -3 11 -8 -4
-11 -13 -13 -8 -32 0 2 4
-12 -17 -28 -17 -27 -30 -9 -3
-6 -12 3 -12 -10 -9 -8 2
19 13 2 16 19 4 5 2
0 -5 2 6 -2 -2 -14 6
1 6 -13 2 -6 -32 -13 3
-15 -13 7 3 7 -11 -29 -17
9 -5 -6 2 11 -3 7 6
-1 1 9 -7 -7 -8 -6 -5
00000000: fefe fe03 02f4 fef2 f107 0008 01f5 0e04
00000010: f803 f9f6 fb14 f901 0c0a fe12 0901 f707
00000020: f103 07fc fe07 f9f9 f9fa 0301 0103 0300
00000030: fa06 fefe faf1 02fb 1109 030f 00fa fcf8
00000040: 06ff 02fa 0308 f80a 0bfc 110d f70f f7f6
00000050: f6ff 0105 f31c fafc f901 06fa fffb 1108
00000060: ff03 fd00 0205 fb0a 0f03 0104 fb02 0ef7
00000070: 0b08 f907 0206 fc02 fd00 fffb 0001 08fc
00000080: 0ef5 ffec 00eb f807 fc06 02fb 0efb fc02
00000090: fef8 0624 00f4 f8f6 fb00 04fc eff1 fbf6
000000a0: 04fc 03fe 0400 0b01 00fb 0210 f8ff 00f8
000000b0: fd06 1814 fd0b f8fc f5f3 f3f8 e000 0204
000000c0: f4ef e4ef e5e2 f7fd faf4 03f4 f6f7 f802
000000d0: 130d 0210 1304 0502 00fb 0206 fefe f206
000000e0: 0106 f302 fae0 f303 f1f3 0703 07f5 e3ef
000000f0: 09fb fa02 0bfd 0706 ff01 09f9 f9f8 fafb

onnx::Conv_276_quantized i1 [16, 16, 3, 3]
-33 6 14 -2 33 -1 44 -19
20 12 -11 7 -20 -27 5 16
-10 13 61 -86 20 15 -43 20
-23 -17 -4 26 5 25 -13 -42
-49 -18 -39 -47 -19 -36 8 -24
-43 -16 5 -33 23 -4 -33 15
7 5 4 20 7 25 -29 -18
22 -12 -14 2 -8 -8 23 -24
-16 -9 -40 -16 -2 -27 -12 16
13 2 -5 7 0 -2 -11 -23
-36 2 -71 26 34 -17 33 36
-52 13 -26 -81 -13 -6 -83 -24
-16 -67 35 47 -87 52 -48 1
-36 -54 -9 -61 5 -28 8 -16
-15 3 11 41 11 -1 63 13
17 0 -11 -3 -61 16 -7 -4
-17 -12 -4 -7 29 -23 8 18
25 5 -32 45 -20 -13 6 -39
4 7 -2 -3 -4 2 -2 8
0 6 -6 -2 1 1 4 8
9 -3 9 4 11 13 3 12
6 -9 1 -5 -12 -3 -2 -1
1 8 12 4 1 3 2 8
4 0 -7 -10 -10 -1 5 10
-12 8 7 -10 3 4 -2 6
7 2 -3 -5 -8 -5 5 0
-19 -13 11 -11 -10 13 6 -4
5 10 8 -1 -1 7 -1 -9
-6 15 8 8 -4 5 4 14
2 9 4 6 4 -5 -1 -2
8 9 3 -1 0 1 7 1
5 -9 -7 -8 -1 -7 -4 2
00000000: df06 0efe 21ff 2ced 140c f507 ece5 0510
00000010: f60d 3daa 140f d514 e9ef fc1a 0519 f3d6
00000020: cfee d9d1 eddc 08e8 d5f0 05df 17fc df0f
00000030: 0705 0414 0719 e3ee 16f4 f202 f8f8 17e8
00000040: f0f7 d8f0 fee5 f410 0d02 fb07 00fe f5e9
00000050: dc02 b91a 22ef 2124 cc0d e6af f3fa ade8
00000060: f0bd 232f a934 d001 dcca f7c3 05e4 08f0
00000070: f103 0b29 0bff 3f0d 1100 f5fd c310 f9fc
00000080: eff4 fcf9 1de9 0812 1905 e02d ecf3 06d9
00000090: 0407 fefd fc02 fe08 0006 fafe 0101 0408
000000a0: 09fd 0904 0b0d 030c 06f7 01fb f4fd feff
000000b0: 0108 0c04 0103 0208 0400 f9f6 f6ff 050a
000000c0: f408 07f6 0304 fe06 0702 fdfb f8fb 0500
000000d0: edf3 0bf5 f60d 06fc 050a 08ff ff07 fff7
000000e0: fa0f 0808 fc05 040e 0209 0406 04fb fffe
000000f0: 0809 03ff 0001 0701 05f7 f9f8 fff9 fc02

onnx::Conv_279_quantized i1 [128, 128, 1, 1]
13 -8 1 -47 -1 -8 -36 3
2 -78 -9 2 -17 5 -14 -21
-8 -2 -29 52 9 -14 8 -8
-1 19 -6 -14 -21 5 -3 12
2 3 5 -3 -9 -6 -37 6
-21 -9 36 -14 -5 0 5 -12
-1 -14 0 -14 9 14 -18 5
-10 27 4 -15 -1 0 -12 -4
-9 -33 7 7 -9 -10 -24 13
1 -9 -4 -10 -3 -8 14 -4
-4 44 -7 0 12 -3 -2 -29
6 9 -11 -19 -34 3 9 9
11 -12 3 15 1 5 8 -12
-3 -16 -9 -41 11 -11 24 -15
-25 5 -7 -5 0 7 12 9
5 -45 21 2 -23 -10 -9 10
-7 -7 4 -3 -47 25 14 -3
6 15 -2 35 -27 1 13 14
-13 9 -6 30 -43 -39 -10 8
-22 -7 -47 8 -7 1 -2 -6
-12 5 13 -32 -10 16 2 -10
-6 -12 -6 -8 13 29 44 -18
-5 -9 20 23 -5 19 17 -21
-23 -8 -7 -10 -89 -4 -12 -21
-34 13 -2 -5 -32 -2 41 15
-1 10 23 7 4 -6 30 9
-19 4 20 -21 20 6 -8 16
3 -12 -6 12 -1 -7 10 -2
2 -18 22 30 -10 -2 12 12
8 -1 -10 -6 -13 1 5 21
23 -18 18 -4 23 7 12 -34
15 29 -7 -10 9 -7 13 20
00000000: 0df8 01d1 fff8 dc03 02b2 f702 ef05 f2eb
00000010: f8fe e334 09f2 08f8 ff13 faf2 eb05 fd0c
00000020: 0203 05fd f7fa db06 ebf7 24f2 fb00 05f4
00000030: fff2 00f2 090e ee05 f61b 04f1 ff00 f4fc
00000040: f7df 0707 f7f6 e80d 01f7 fcf6 fdf8 0efc
00000050: fc2c f900 0cfd fee3 0609 f5ed de03 0909
00000060: 0bf4 030f 0105 08f4 fdf0 f7d7 0bf5 18f1
00000070: e705 f9fb 0007 0c09 05d3 1502 e9f6 f70a
00000080: f9f9 04fd d119 0efd 060f fe23 e501 0d0e
00000090: f309 fa1e d5d9 f608 eaf9 d108 f901 fefa
000000a0: f405 0de0 f610 02f6 faf4 faf8 0d1d 2cee
000000b0: fbf7 1417 fb13 11eb e9f8 f9f6 a7fc f4eb
000000c0: de0d fefb e0fe 290f ff0a 1707 04fa 1e09
000000d0: ed04 14eb 1406 f810 03f4 fa0c fff9 0afe
000000e0: 02ee 161e f6fe 0c0c 08ff f6fa f301 0515
000000f0: 17ee 12fc 1707 0cde 0f1d f9f6 09f9 0d14

onnx::Conv_282_quantized i1 [128, 1, 3, 3]
1 6 6 6 12 9 5 7
4 -3 -5 -4 -5 -7 -5 -2
-4 -2 -2 -4 -2 -5 -10 -8
-4 -8 -6 2 -5 -5 -2 -16
-13 -4 -12 -9 -6 -12 -6 -9
-18 -10 -2 -8 -6 -1 -3 -3
-4 -10 -7 -1 -8 -8 -3 -8
-4 -7 -20 -13 -3 -13 -8 1
5 3 4 11 9 3 8 7
-2 -7 -3 -10 -22 -11 -4 -14
-8 -1 14 18 1 24 29 4
15 11 -14 1 22 -46 1 51
-34 -2 34 -1 4 2 5 11
8 6 10 7 4 6 3 4
10 6 3 7 3 1 4 3
1 7 5 1 4 4 -2 -5
-2 -4 -9 -6 -3 -6 -5 -1
-3 -2 -3 -8 -5 -2 -5 -4
2 10 9 4 13 10 0 6
5 -2 -3 0 -4 -9 -4 -3
-5 -4 -2 1 -2 9 25 16
6 11 9 0 -3 -4 -3 -12
-9 -3 -8 -4 4 7 3 5
12 9 2 7 4 30 8 -22
55 7 -47 28 0 -28 1 -2
-1 -5 -10 -6 -5 -9 -7 -3
-9 -6 -7 -15 -10 -5 -9 -5
1 5 3 3 11 9 2 6
4 2 4 4 6 13 10 3
10 6 1 1 2 4 11 9
3 11 7 0 -6 -3 -4 -11
-8 -3 -7 -7 14 36 29 -30
00000000: 0106 0606 0c09 0507 04fd fbfc fbf9 fbfe
00000010: fcfe fefc fefb f6f8 fcf8 fa02 fbfb fef0
00000020: f3fc f4f7 faf4 faf7 eef6 fef8 faff fdfd
00000030: fcf6 f9ff f8f8 fdf8 fcf9 ecf3 fdf3 f801
00000040: 0503 040b 0903 0807 fef9 fdf6 eaf5 fcf2
00000050: f8ff 0e12 0118 1d04 0f0b f201 16d2 0133
00000060: defe 22ff 0402 050b 0806 0a07 0406 0304
00000070: 0a06 0307 0301 0403 0107 0501 0404 fefb
00000080: fefc f7fa fdfa fbff fdfe fdf8 fbfe fbfc
00000090: 020a 0904 0d0a 0006 05fe fd00 fcf7 fcfd
000000a0: fbfc fe01 fe09 1910 060b 0900 fdfc fdf4
000000b0: f7fd f8fc 0407 0305 0c09 0207 041e 08ea
000000c0: 3707 d11c 00e4 01fe fffb f6fa fbf7 f9fd
000000d0: f7fa f9f1 f6fb f7fb 0105 0303 0b09 0206
000000e0: 0402 0404 060d 0a03 0a06 0101 0204 0b09
000000f0: 030b 0700 fafd fcf5 f8fd f9f9 0e24 1de2

onnx::Conv_285_quantized i1 [64, 128, 3, 3]
-7 3 -2 -1 -1 -3 1 7
-4 2 7 3 -4 2 2 -8
5 4 -1 -8 0 -1 -3 6
7 7 25 -5 -1 -7 8 -3
8 -1 -2 -4 2 -2 2 -7
-1 -4 -16 -13 -10 1 -12 -5
-3 -2 -8 -8 -2 -7 7 2
5 5 3 9 -1 -4 -6 -2
-4 -7 -1 -12 0 13 1 14
11 20 10 5 -3 6 6 12
0 -5 -4 2 1 21 2 -2
-4 -2 -4 -3 0 2 -4 1
-2 8 1 -5 -6 -6 -2 -8
2 -2 -1 1 -3 -4 -1 -1
-4 -1 11 12 14 6 8 1
-3 -11 2 -1 -2 -2 17 20
8 -4 3 0 -3 -4 -1 -9
-8 -12 -8 -6 -16 -9 -11 -15
-5 0 -1 2 2 7 -12 1
-4 9 15 10 4 2 1 9
3 -1 -1 -1 0 -9 0 -11
6 5 6 -2 1 -1 -6 -2
-11 -5 -7 -3 -8 -4 -2 -17
-9 -10 -1 -1 -1 -5 1 1
-15 -3 11 0 1 8 7 -4
5 6 1 4 2 -13 -6 -4
-4 -6 -3 5 -8 10 4 -6
-2 3 -3 -1 6 -7 2 3
-2 1 5 0 -1 -9 -8 -2
-9 -7 -1 -2 -4 5 2 -1
7 5 4 -14 -15 -7 -1 -4
5 5 7 10 -6 2 14 9
00000000: f903 feff fffd 0107 fc02 0703 fc02 02f8
00000010: 0504 fff8 00ff fd06 0707 19fb fff9 08fd
00000020: 08ff fefc 02fe 02f9 fffc f0f3 f601 f4fb
00000030: fdfe f8f8 fef9 0702 0505 0309 fffc fafe
00000040: fcf9 fff4 000d 010e 0b14 0a05 fd06 060c
00000050: 00fb fc02 0115 02fe fcfe fcfd 0002 fc01
00000060: fe08 01fb fafa fef8 02fe ff01 fdfc ffff
00000070: fcff 0b0c 0e06 0801 fdf5 02ff fefe 1114
00000080: 08fc 0300 fdfc fff7 f8f4 f8fa f0f7 f5f1
00000090: fb00 ff02 0207 f401 fc09 0f0a 0402 0109
000000a0: 03ff ffff 00f7 00f5 0605 06fe 01ff fafe
000000b0: f5fb f9fd f8fc feef f7f6 ffff fffb 0101
000000c0: f1fd 0b00 0108 07fc 0506 0104 02f3 fafc
000000d0: fcfa fd05 f80a 04fa fe03 fdff 06f9 0203
000000e0: fe01 0500 fff7 f8fe f7f9 fffe fc05 02ff
000000f0: 0705 04f2 f1f9 fffc 0505 070a fa02 0e09

onnx::Conv_288_quantized i1 [32, 64, 3, 3]
2 -6 -23 -18 -28 -36 14 9
9 -11 -22 -22 16 0 17 18
12 16 -15 -8 -21 -20 -6 -23
-13 -20 -15 -2 -3 13 26 10
28 24 25 20 6 -11 4 12
0 19 -9 -10 15 -20 -6 -17
-5 3 -6 -11 -37 -34 25 16
7 80 7 -27 2 -6 -21 -33
-35 -41 -20 -21 -23 -6 -11 -1
24 26 9 33 29 21 38 58
29 -39 -8 -7 -16 -1 -13 0
-3 -12 1 8 -3 5 11 -1
-12 -3 -19 -10 0 3 -25 -24
-7 1 0 9 -13 -5 6 8
-3 15 28 23 34 -8 7 -12
-9 10 -10 -23 -24 -35 35 46
52 -30 -32 -3 -19 -22 -12 -8
-14 -28 -1 -14 -2 -28 -11 -7
-10 4 2 -7 -7 10 -22 -28
-25 10 -2 -7 -3 -1 -8 -7
12 -14 -5 -4 1 12 -1 1
-3 -11 -17 -28 -21 -21 -39 -25
-31 -33 -17 -28 -14 -17 -5 -28
-22 14 -23 -21 -8 9 19 -1
18 16 -13 22 21 0 -4 -6
-34 -14 -14 -14 14 7 8 -17
-5 -15 -3 -22 6 -12 -32 -10
-10 -25 2 2 31 10 24 18
31 -29 -9 -26 -22 -24 -24 -4
5 -1 10 10 -2 2 -1 5
-34 -30 -13 -12 -27 -31 -3 9
5 -40 -6 17 -26 -5 5 2
00000000: 02fa e9ee e4dc 0e09 09f5 eaea 1000 1112
00000010: 0c10 f1f8 ebec fae9 f3ec f1fe fd0d 1a0a
00000020: 1c18 1914 06f5 040c 0013 f7f6 0fec faef
00000030: fb03 faf5 dbde 1910 0750 07e5 02fa ebdf
00000040: ddd7 eceb e9fa f5ff 181a 0921 1d15 263a
00000050: 1dd9 f8f9 f0ff f300 fdf4 0108 fd05 0bff
00000060: f4fd edf6 0003 e7e8 f901 0009 f3fb 0608
00000070: fd0f 1c17 22f8 07f4 f70a f6e9 e8dd 232e
00000080: 34e2 e0fd edea f4f8 f2e4 fff2 fee4 f5f9
00000090: f604 02f9 f90a eae4 e70a fef9 fdff f8f9
000000a0: 0cf2 fbfc 010c ff01 fdf5 efe4 ebeb d9e7
000000b0: e1df efe4 f2ef fbe4 ea0e e9eb f809 13ff
000000c0: 1210 f316 1500 fcfa def2 f2f2 0e07 08ef
000000d0: fbf1 fdea 06f4 e0f6 f6e7 0202 1f0a 1812
000000e0: 1fe3 f7e6 eae8 e8fc 05ff 0a0a fe02 ff05
000000f0: dee2 f3f4 e5e1 fd09 05d8 fa11 e6fb 0502

onnx::Conv_291_quantized i1 [32, 32, 3, 3]
-5 -2 -9 -13 1 0 -2 -2
7 17 8 15 6 -1 0 -10
-16 -13 -11 0 0 -1 10 6
-19 -1 -13 11 16 3 -6 14
-2 -9 -3 -10 19 16 17 -1
-3 -5 3 -5 -9 -5 -3 -12
3 7 -8 9 7 1 21 20
3 7 -4 -12 -8 -18 -15 -1
8 8 0 -12 -1 17 21 8
-16 2 11 -27 -3 -5 -14 -6
-15 -7 -15 -17 -2 -11 -16 -5
-7 -8 -18 -11 -13 -16 -13 -9
-13 -15 -13 -7 -3 -9 -26 -26
0 -9 12 1 7 8 9 -1
4 1 -1 8 1 10 2 9
6 1 5 7 0 8 13 -4
15 -14 -7 -7 3 15 14 7
23 3 32 13 -6 21 5 14
0 8 8 -6 3 -4 -4 -2
1 14 10 2 -3 -15 -23 -8
-5 -6 2 1 -2 8 8 1
-14 -9 -16 14 13 -6 0 6
-12 8 27 0 0 -14 -9 14
7 -5 1 14 1 -1 -5 3
11 -12 13 7 4 4 8 14
14 7 8 -2 0 -12 -10 13
12 0 10 3 11 2 11 2
12 6 4 8 0 2 7 13
14 11 0 7 -10 -3 1 -21
-14 -14 -3 4 -12 9 7 -8
4 8 -5 -6 -12 -1 -7 -41
-8 2 -19 5 -3 -4 1 2
00000000: fbfe f7f3 0100 fefe 0711 080f 06ff 00f6
00000010: f0f3 f500 00ff 0a06 edff f30b 1003 fa0e
00000020: fef7 fdf6 1310 11ff fdfb 03fb f7fb fdf4
00000030: 0307 f809 0701 1514 0307 fcf4 f8ee f1ff
00000040: 0808 00f4 ff11 1508 f002 0be5 fdfb f2fa
00000050: f1f9 f1ef fef5 f0fb f9f8 eef5 f3f0 f3f7
00000060: f3f1 f3f9 fdf7 e6e6 00f7 0c01 0708 09ff
00000070: 0401 ff08 010a 0209 0601 0507 0008 0dfc
00000080: 0ff2 f9f9 030f 0e07 1703 200d fa15 050e
00000090: 0008 08fa 03fc fcfe 010e 0a02 fdf1 e9f8
000000a0: fbfa 0201 fe08 0801 f2f7 f00e 0dfa 0006
000000b0: f408 1b00 00f2 f70e 07fb 010e 01ff fb03
000000c0: 0bf4 0d07 0404 080e 0e07 08fe 00f4 f60d
000000d0: 0c00 0a03 0b02 0b02 0c06 0408 0002 070d
000000e0: 0e0b 0007 f6fd 01eb f2f2 fd04 f409 07f8
000000f0: 0408 fbfa f4ff f9d7 f802 ed05 fdfc 0102

onnx::Conv_294_quantized i1 [128, 256, 1, 1]
-19 -20 8 -9 -12 3 -2 -9
-13 -29 0 -8 -9 2 10 -6
28 9 -3 7 8 -17 3 -1
3 0 -1 3 -23 -4 14 8
0 -7 -2 -12 5 -6 -6 33
13 9 14 2 11 2 -6 -7
-14 2 -22 -4 2 3 -2 9
0 -4 2 -14 -12 -6 7 -6
-3 -24 -3 -12 10 -2 18 6
13 -14 10 -21 -9 29 -4 54
-8 -19 -7 -5 6 -9 12 -10
-6 -12 8 13 2 -5 11 11
-2 2 6 -3 6 -9 -4 1
-21 -2 -6 1 4 -4 -14 4
-14 3 -7 10 -9 8 -2 -1
5 10 -5 -3 -6 -2 10 -20
-19 -1 7 11 -14 11 -11 0
-6 1 16 3 -2 4 -4 -13
11 -4 -18 0 -11 28 -13 10
-5 6 13 -16 -15 -12 17 13
-9 -2 -10 -15 -25 -5 -3 1
7 -3 0 11 14 10 -5 12
-22 25 -6 15 -8 -3 -6 5
-11 -1 0 -11 19 -14 0 5
8 9 -3 2 2 -5 -4 19
-13 -3 -8 -11 13 -5 14 -2
3 -16 -4 -6 -8 2 3 3
8 -28 2 13 5 5 -12 4
-9 -1 -2 -6 5 -14 -11 -21
-35 -38 -8 -43 -26 -9 -11 10
10 17 -14 -14 -5 5 19 18
4 -2 -15 -17 7 -7 -3 14
00000000: edec 08f7 f403 fef7 f3e3 00f8 f702 0afa
00000010: 1c09 fd07 08ef 03ff 0300 ff03 e9fc 0e08
00000020: 00f9 fef4 05fa fa21 0d09 0e02 0b02 faf9
00000030: f202 eafc 0203 fe09 00fc 02f2 f4fa 07fa
00000040: fde8 fdf4 0afe 1206 0df2 0aeb f71d fc36
00000050: f8ed f9fb 06f7 0cf6 faf4 080d 02fb 0b0b
00000060: fe02 06fd 06f7 fc01 ebfe fa01 04fc f204
00000070: f203 f90a f708 feff 050a fbfd fafe 0aec
00000080: edff 070b f20b f500 fa01 1003 fe04 fcf3
00000090: 0bfc ee00 f51c f30a fb06 0df0 f1f4 110d
000000a0: f7fe f6f1 e7fb fd01 07fd 000b 0e0a fb0c
000000b0: ea19 fa0f f8fd fa05 f5ff 00f5 13f2 0005
000000c0: 0809 fd02 02fb fc13 f3fd f8f5 0dfb 0efe
000000d0: 03f0 fcfa f802 0303 08e4 020d 0505 f404
000000e0: f7ff fefa 05f2 f5eb ddda f8d5 e6f7 f50a
000000f0: 0a11 f2f2 fb05 1312 04fe f1ef 07f9 fd0e

onnx::Conv_297_quantized i1 [64, 128, 3, 3]
-21 -10 -20 -3 16 6 1 11
2 -3 -9 4 -8 -13 0 -7
-22 -8 14 13 17 4 -8 8
-7 -10 0 -6 3 -5 7 -2
4 8 -1 5 -8 7 -6 3
8 6 -1 -14 6 21 14 19
-2 -10 3 -14 -44 -18 -9 -8
-5 -3 -3 -4 5 15 4 14
14 15 -4 -14 4 -8 -17 -9
-2 3 4 -3 -20 -13 -2 -8
16 -7 1 -10 -16 7 -13 1
29 8 1 -12 8 6 -26 -6
8 4 12 1 -1 1 0 1
-4 5 1 2 6 2 -1 -9
-16 -11 -17 -18 -16 -9 -11 -20
-8 -8 -2 -9 -7 -3 2 -7
-1 -10 -18 -3 -11 -8 -5 14
9 14 6 -13 -5 -1 13 -2
-12 3 -1 -7 -5 -3 2 1
-2 -3 -10 -1 0 -8 0 5
-4 2 9 -13 4 0 -29 -10
3 11 -2 -9 5 -4 4 14
3 -6 0 -6 -1 -6 -3 12
21 6 -10 -23 -15 14 -10 0
2 -4 -7 1 7 9 -16 -4
-28 -7 -2 -9 1 3 -9 -14
-3 -4 -7 -14 -5 0 -3 6
-7 -6 -8 2 -3 -11 -2 3
-6 -3 6 -9 -4 14 7 -21
-10 -26 -8 -7 -13 -6 8 4
-12 1 -5 -9 -20 -2 -7 -17
-4 -12 -8 -6 14 2 29 -11
00000000: ebf6 ecfd 1006 010b 02fd f704 f8f3 00f9
00000010: eaf8 0e0d 1104 f808 f9f6 00fa 03fb 07fe
00000020: 0408 ff05 f807 fa03 0806 fff2 0615 0e13
00000030: fef6 03f2 d4ee f7f8 fbfd fdfc 050f 040e
00000040: 0e0f fcf2 04f8 eff7 fe03 04fd ecf3 fef8
00000050: 10f9 01f6 f007 f301 1d08 01f4 0806 e6fa
00000060: 0804 0c01 ff01 0001 fc05 0102 0602 fff7
00000070: f0f5 efee f0f7 f5ec f8f8 fef7 f9fd 02f9
00000080: fff6 eefd f5f8 fb0e 090e 06f3 fbff 0dfe
00000090: f403 fff9 fbfd 0201 fefd f6ff 00f8 0005
000000a0: fc02 09f3 0400 e3f6 030b fef7 05fc 040e
000000b0: 03fa 00fa fffa fd0c 1506 f6e9 f10e f600
000000c0: 02fc f901 0709 f0fc e4f9 fef7 0103 f7f2
000000d0: fdfc f9f2 fb00 fd06 f9fa f802 fdf5 fe03
000000e0: fafd 06f7 fc0e 07eb f6e6 f8f9 f3fa 0804
000000f0: f401 fbf7 ecfe f9ef fcf4 f8fa 0e02 1df5

onnx::Conv_300_quantized i1 [32, 64, 3, 3]
1 -2 -1 6 2 3 13 5
12 -15 -16 -13 -20 -19 -7 -13
-18 -13 3 9 -1 6 -1 -1
3 -9 4 14 12 24 0 1
9 3 5 -7 -3 3 0 10
0 -4 -9 -9 -3 -9 -1 -5
-6 -1 3 4 -2 6 2 -3
-2 3 8 2 -3 9 4 1
-5 -4 -4 2 -8 -5 -7 -12
2 6 0 10 20 6 18 19
16 0 -12 -12 3 1 -1 4
5 -2 -8 -1 -5 -3 -14 -16
3 1 -3 -7 -13 -1 -2 -11
7 17 8 24 -9 -3 -12 -5
0 -2 -11 -5 -12 -6 -8 -19
-8 -1 -11 -7 -8 -11 -7 -7
-2 -3 -4 2 -6 -4 2 -11
-12 -12 -2 -1 -3 -7 -9 -3
-4 11 7 -10 8 -10 -11 -10
-12 11 4 13 15 1 7 26
14 16 3 -9 2 -8 -4 -1
-11 2 8 22 25 1 22 10
-1 8 19 -4 -16 -4 -6 -13
-8 -9 -7 -18 -23 -21 -23 -19
-14 -13 -9 0 -1 3 -10 -6
-13 2 -6 1 -3 0 -5 12
10 -5 2 17 -4 2 -2 19
14 14 4 19 22 -7 -18 -20
-5 -1 1 -6 -3 -1 -4 4
2 0 0 -2 -7 6 12 10
6 2 9 -17 -16 -20 -18 -14
-10 -13 -17 -13 -9 -4 -10 -5
00000000: 01fe ff06 0203 0d05 0cf1 f0f3 eced f9f3
00000010: eef3 0309 ff06 ffff 03f7 040e 0c18 0001
00000020: 0903 05f9 fd03 000a 00fc f7f7 fdf7 fffb
00000030: faff 0304 fe06 02fd fe03 0802 fd09 0401
00000040: fbfc fc02 f8fb f9f4 0206 000a 1406 1213
00000050: 1000 f4f4 0301 ff04 05fe f8ff fbfd f2f0
00000060: 0301 fdf9 f3ff fef5 0711 0818 f7fd f4fb
00000070: 00fe f5fb f4fa f8ed f8ff f5f9 f8f5 f9f9
00000080: fefd fc02 fafc 02f5 f4f4 feff fdf9 f7fd
00000090: fc0b 07f6 08f6 f5f6 f40b 040d 0f01 071a
000000a0: 0e10 03f7 02f8 fcff f502 0816 1901 160a
000000b0: ff08 13fc f0fc faf3 f8f7 f9ee e9eb e9ed
000000c0: f2f3 f700 ff03 f6fa f302 fa01 fd00 fb0c
000000d0: 0afb 0211 fc02 fe13 0e0e 0413 16f9 eeec
000000e0: fbff 01fa fdff fc04 0200 00fe f906 0c0a
000000f0: 0602 09ef f0ec eef2 f6f3 eff3 f7fc f6fb

onnx::Conv_303_quantized i1 [32, 32, 3, 3]
0 9 2 10 -1 0 3 -3
7 30 4 29 15 1 9 27
25 28 9 -10 11 -1 -8 -1
4 0 3 -13 -17 -5 -1 -4
-19 1 -8 -6 -4 -7 6 6
-5 1 -2 0 -6 20 15 19
4 -6 8 18 20 20 26 17
34 11 -7 11 31 9 25 11
18 15 10 11 12 6 8 9
5 3 -5 -7 6 -4 -4 -3
-2 10 0 7 3 -22 -3 8
-1 13 -7 -3 -7 -6 -2 -10
-8 -21 -7 27 -3 23 4 8
4 7 -4 12 -8 4 -12 2
9 0 16 -21 10 -30 -15 -42
-4 6 -19 -20 1 -35 16 6
15 6 -12 10 17 5 13 -12
9 0 6 -3 -12 7 -6 7
1 -8 -1 -5 -11 -2 0 -7
3 29 11 27 11 -11 15 31
20 30 18 -9 6 -7 14 8
25 13 10 -29 -3 -27 -11 13
-7 -23 -1 -21 4 3 3 14
3 7 7 11 3 -7 18 -1
-10 -1 -5 -14 -5 -4 -32 0
-28 -7 13 -10 -22 -29 -23 18
18 17 12 3 16 11 5 6
-4 -11 -13 -8 -13 -15 -13 -7
-1 29 11 22 8 -9 13 21
6 17 1 -2 4 -4 7 -2
-4 -17 -3 13 -23 16 9 -9
2 3 23 5 30 11 13 2
00000000: 0009 020a ff00 03fd 071e 041d 0f01 091b
00000010: 191c 09f6 0bff f8ff 0400 03f3 effb fffc
00000020: ed01 f8fa fcf9 0606 fb01 fe00 fa14 0f13
00000030: 04fa 0812 1414 1a11 220b f90b 1f09 190b
00000040: 120f 0a0b 0c06 0809 0503 fbf9 06fc fcfd
00000050: fe0a 0007 03ea fd08 ff0d f9fd f9fa fef6
00000060: f8eb f91b fd17 0408 0407 fc0c f804 f402
00000070: 0900 10eb 0ae2 f1d6 fc06 edec 01dd 1006
00000080: 0f06 f40a 1105 0df4 0900 06fd f407 fa07
00000090: 01f8 fffb f5fe 00f9 031d 0b1b 0bf5 0f1f
000000a0: 141e 12f7 06f9 0e08 190d 0ae3 fde5 f50d
000000b0: f9e9 ffeb 0403 030e 0307 070b 03f9 12ff
000000c0: f6ff fbf2 fbfc e000 e4f9 0df6 eae3 e912
000000d0: 1211 0c03 100b 0506 fcf5 f3f8 f3f1 f3f9
000000e0: ff1d 0b16 08f7 0d15 0611 01fe 04fc 07fe
000000f0: fcef fd0d e910 09f7 0203 1705 1e0b 0d02

model.cls_head.classifier.2.weight_quantized i1 [2, 256, 1, 1]
73 15 12 20 -89 -6 -24 120
98 -11 17 -18 -94 19 18 -29
-23 -34 -5 100 56 68 116 -87
-30 -78 14 74 71 -92 31 21
-32 8 -5 -44 96 -3 49 -62
9 -74 -13 -57 47 58 97 48
87 34 9 -53 -18 105 71 15
0 -38 -6 -80 16 -35 -7 72
72 70 74 -112 42 -18 -53 114
-4 -61 45 20 56 -28 -25 -108
38 71 26 82 -29 -28 -34 73
35 -58 20 -36 -24 -56 72 47
-95 -64 108 -45 12 -53 -54 99
-23 -49 45 -35 -28 -79 -51 -45
1 47 -27 -90 82 -93 -2 -23
102 65 44 -46 101 -45 66 122
-29 -52 32 60 38 -42 6 51
94 -85 -19 73 99 -87 -51 -81
-85 50 90 -36 -48 -64 65 -81
32 22 -9 -108 31 -21 -39 45
-53 -20 -93 50 16 -59 -64 38
68 -2 -34 -26 32 -113 44 24
-19 -71 69 -4 7 105 -32 11
-5 -33 102 -42 73 0 69 25
44 -20 -38 -41 -62 -56 2 -50
33 -93 6 74 44 -14 41 80
6 -80 -50 21 107 15 -73 40
69 -38 19 -22 109 43 78 66
17 126 -51 6 17 7 53 -66
-22 85 93 72 107 -32 7 11
60 -60 -70 -1 12 77 4 -34
-66 -15 26 -8 116 -93 -8 9
00000000: 490f 0c14 a7fa e878 62f5 11ee a213 12e3
00000010: e9de fb64 3844 74a9 e2b2 0e4a 47a4 1f15
00000020: e008 fbd4 60fd 31c2 09b6 f3c7 2f3a 6130
00000030: 5722 09cb ee69 470f 00da fab0 10dd f948
00000040: 4846 4a90 2aee cb72 fcc3 2d14 38e4 e794
00000050: 2647 1a52 e3e4 de49 23c6 14dc e8c8 482f
00000060: a1c0 6cd3 0ccb ca63 e9cf 2ddd e4b1 cdd3
00000070: 012f e5a6 52a3 fee9 6641 2cd2 65d3 427a
00000080: e3cc 203c 26d6 0633 5eab ed49 63a9 cdaf
00000090: ab32 5adc d0c0 41af 2016 f794 1feb d92d
000000a0: cbec a332 10c5 c026 44fe dee6 208f 2c18
000000b0: edb9 45fc 0769 e00b fbdf 66d6 4900 4519
000000c0: 2cec dad7 c2c8 02ce 21a3 064a 2cf2 2950
000000d0: 06b0 ce15 6b0f b728 45da 13ea 6d2b 4e42
000000e0: 117e cd06 1107 35be ea55 5d48 6be0 070b
000000f0: 3cc4 baff 0c4d 04de bef1 1af8 74a3 f809
